playground/defense_project/models/defense_homework-model.pth (torch, 90231 bytes, 8 tensors)

conv1.weight f4 [10, 1, 5, 5]
00000000: 4234 283d 2eb7 7bbe ecc0 c7be 5278 b9be
00000010: d6bd dcbe f64b 653e 0a0c 2f3d 8f6b b8bd
00000020: 9bd0 5ebe 2ed8 9abe aa5b 823e a2e8 dc3e
00000030: 2b38 e93e 23fc 533e 4332 42bc dbf4 b63c
00000040: e996 a33e a78e bd3e e58c 043f c501 883e
00000050: cba9 7bbe 0343 96be c0ba 4dbe 054c f6bd
00000060: 9899 b03c f20f 6a3e 18e7 b53e 04b2 c9bb
00000070: 2719 e8be c0c0 70be fb67 993e 186f d73e
00000080: f5e4 52bb a548 e9be 9064 ebbe 7eae 713e
00000090: d84a fa3e 971f 27be f9b9 85be b429 dcbe
000000a0: 00f3 d53e 1ffd e73d c17a 9b3d d3ad 77be
000000b0: 664f 90be e16c 943e c66e 233e fd55 113e
000000c0: c683 0cbe 67c8 c4bd c19b 00bf 7102 b6be
000000d0: 6104 8ebc b81b 863d 3a6e ba3e 22f3 81be
000000e0: 2ea6 1fbe ced1 7f3d a0a6 cc3e 146b 433e
000000f0: ace1 9fbe 4228 4b3e e408 ef3e f01d f63e
00000100: 3ee3 27be 70e9 bf3c 30e0 5c3e c3eb b03e
00000110: c372 1fbd 13c9 89be f5ec 363e 34d8 3a3d
00000120: d747 773d ac45 3dbe 68f0 45be 074a 883e
00000130: d9d8 f03e 620f d43e 01db a63d db30 6d3e
00000140: a08f 12be 0b1c b33c 9676 413e e912 4a3e
00000150: 2975 8e3e 9c72 7ebe 7ecc 98be 6d08 333d
00000160: 6569 053c d129 033e e446 7c3c 92a9 a4be
00000170: 3948 7bbe 5b76 09be 5b84 b1be 4f5d 13bc
00000180: a9a6 2f3d 7e53 41be 8f92 9abe 3fe8 7cbe
00000190: 1dfe b33e 5c96 e93d 8052 483e 37a7 793c
000001a0: 849f 8cbe 8443 1ebe 4fa4 bc3e 0a56 113e
000001b0: dd03 a93d 6b7a 7dbd fb50 7cbc 26e9 cf3e
000001c0: 7362 b63e 1061 1cbe f309 a03b 537a f73d
000001d0: cfaf ad3e 465a a63e 1be0 88bc d236 bfbc
000001e0: 8496 35be f235 893d e9ed a83e ff0b 8a3c
000001f0: b98a 673e b67b 89be 5dc4 b2be 7648 34be
00000200: c006 853e 24e1 f03e 6058 47be 4365 f03d
00000210: 9235 9c3e d638 dd3e 1425 6f3e efb9 573e
00000220: a9c5 6c3e d5b4 a33d 729b 80bd 76eb 86be
00000230: 45af 20bc cc58 00bd a3eb 70be 38f3 373d
00000240: a533 e73d c0ce 83bc b3cb d9b9 a033 053c
00000250: 6605 333e 65b7 853e 7bc5 8dbe 88b0 bc3c
00000260: b3a5 52bb 539e 993d 9db2 81be 5250 bcbe
00000270: c333 34be 6272 8e3c 925e 883e 381b 0bbe
00000280: 480c c4be 7e48 f33c e0c9 203e 8c3c 4d3e
00000290: c2e2 4ebe b219 cebd 9fd6 d4bd d355 5ebb
000002a0: 857d d6bd 4853 54bd 1eef 04bd cd07 a33d
000002b0: a977 cd3d 25e6 673e a243 dd3e 9945 163e
000002c0: a0f3 693e 59b6 2c3e 61f8 dabd bae9 583e
000002d0: 8a21 88be 8ba8 81be 21ad f3be 5b4b d1be
000002e0: f8e7 d3be 5e97 b73d 10b0 9dbe 9ad6 b8be
000002f0: 7f16 5abe 3b24 65be 7eb8 883e 2f52 383e
00000300: 8525 1e3e 92bb 443e 2a28 a23e 9cbd d93c
00000310: e786 e43e b514 063f cc23 dc3e e7fe 313d
00000320: e884 db3c f347 debd c2d1 8e3e 6358 ab3d
00000330: 0afc 053e b344 afbd 5bd8 c3bd 832c 613d
00000340: 5897 a33e 9eaf b43e 2699 52bd 0952 44bd
00000350: 2c3b 86be 9047 933e 9d7b 053f 4174 6c3d
00000360: 3c67 aabc fd0e a5be 03b5 1bbe 7ce9 cb3e
00000370: b52d efbe 01ce 52be 8bc6 08bf d8d2 08bf
00000380: 964e ddbc c391 09be 849f ac3b 4d3e b73e
00000390: 1ec2 f03e 26fd e43e e814 f1bd a448 41be
000003a0: aa18 b83e 4594 583e 275e 133e f606 03be
000003b0: db96 7fbe 45b8 263e c513 8a3e a09b 07bd
000003c0: f6bb cdbe 01c8 60be a0ed 67bd 40ba 4bbd
000003d0: bf4b 1ebe 75b2 91be f999 09bf 2963 eabe
000003e0: 5613 b7be 0d88 36bd
0.041065462 -0.24581596 -0.39014375 -0.3622461 -0.43113583 0.22392258 0.04273609 -0.0900489
-0.21759264 -0.30243057 0.2546056 0.43146235 0.45550665 0.20701651 -0.011852804 0.022333553
0.31951073 0.37022898 0.5177749 0.2656385 -0.2457649 -0.29348 -0.2009077 -0.12026218
0.021557614 0.22857645 0.35527873 -0.0061552543 -0.4533169 -0.23511028 0.29962143 0.42076945
-0.0032179926 -0.45563236 -0.4597516 0.2360172 0.48885226 -0.16320644 -0.26118448 -0.43000567
0.41786957 0.11327576 0.07591773 -0.24187402 -0.28185576 0.28989318 0.15960225 0.14192958
-0.13722143 -0.09608536 -0.5023766 -0.35548738 -0.017336072 0.06548256 0.3641222 -0.25380808
-0.15590736 0.062455945 0.39970875 0.19083816 -0.3122686 0.19839576 0.4668647 0.48069715
-0.1639528 0.023426741 0.21569896 0.34554872 -0.038927805 -0.2691122 0.1786383 0.045616344
0.060371246 -0.18483609 -0.19329989 0.26618978 0.47040442 0.41417986 0.081472404 0.23163168
-0.14312601 0.021863958 0.18892893 0.19733776 0.2782376 -0.24848408 -0.29843515 0.043709207
0.008142804 0.1280892 0.015397761 -0.32160622 -0.2453927 -0.13424055 -0.34671292 -0.0089944145
0.04288355 -0.18879506 -0.3018994 -0.2469797 0.3515481 0.11405632 0.19562721 0.015237621
-0.2746545 -0.15455443 0.36844108 0.14192978 0.0825269 -0.061884325 -0.015400167 0.40607566
0.35621986 -0.15271401 0.0048839985 0.12083878 0.33923194 0.32490748 -0.016708424 -0.02334157
-0.17733198 0.066997424 0.3299401 0.016851423 0.22611512 -0.26852196 -0.34915438 -0.17605767
0.25981712 0.4704677 -0.19467306 0.11738064 0.3050962 0.43207425 0.23353988 0.21067022
0.23122276 0.07993475 -0.06279649 -0.26351517 -0.0098074125 -0.031334683 -0.23527388 0.044909686
0.11289147 -0.016089797 -0.00041541233 0.008129984 0.17482528 0.2611648 -0.27689728 0.023033395
-0.0032142221 0.07500901 -0.25331584 -0.3678003 -0.1759787 0.017388526 0.2663465 -0.13584602
-0.3829062 0.029697653 0.15702009 0.20042628 -0.20203689 -0.10063495 -0.10392498 -0.0033925667
-0.1047316 -0.051837236 -0.032454602 0.07960472 0.10032589 0.22646387 0.43215662 0.14674987
0.22846842 0.16866435 -0.10691906 0.2118291 -0.26588088 -0.253239 -0.47593024 -0.40877804
-0.41387916 0.08964418 -0.30798388 -0.36101228 -0.21297644 -0.22377102 0.26703256 0.180001
0.15444 0.19212177 0.31671268 0.02657967 0.44634172 0.52375346 0.4299606 0.043455984
0.026796773 -0.10853567 0.27894408 0.08366468 0.13084427 -0.08558025 -0.09562751 0.05497409
0.31951404 0.35290235 -0.051415585 -0.047929797 -0.2621702 0.28765535 0.52141744 0.057728056
-0.02080118 -0.32237998 -0.15205769 0.39826572 -0.4671456 -0.20586397 -0.5342795 -0.5344672
-0.027015012 -0.1343451 0.005268039 0.3578972 0.470231 0.44724387 -0.11771566 -0.18875366
0.35956317 0.2115031 0.14391385 -0.12795624 -0.2495989 0.16281231 0.26968208 -0.0331074
-0.40182465 -0.21951295 -0.0566231 -0.04973817 -0.15458582 -0.28456464 -0.5375057 -0.45778778
-0.3575694 -0.044563342

conv1.bias f4 [10]
00000000: 112e 3abd 366a c4bd 5486 22be 11f7 0c3d
00000010: df44 c93d 1cf3 ecbc 960e bc3d a32a 483d
00000020: e663 d1bc 96cd 75bb
-0.04545409 -0.09590571 -0.15871555 0.03441531 0.09827589 -0.028924517 0.091824695 0.048868787
-0.02556033 -0.0037506572

conv2.weight f4 [20, 10, 5, 5]
00000000: bd41 27bd 36c8 e23c b98d 43be 70f7 2bbd
00000010: 19aa 2a3d 7b34 7dbd fa49 52bd 5ba7 11be
00000020: fb51 a93c e16c b43c 216c c03d 77b2 723c
00000030: 3a55 29bd e0d6 863c 747b 553d ef1e 02be
00000040: c5e7 90bd 6c32 9bb9 2979 0f3d fe91 483d
00000050: 4359 333d 3524 ad3d 6f17 5f3d c32a 16bc
00000060: feca dbbd bfeb e4bc 9904 1ebe 5da7 16bd
00000070: de7d 933c 8781 7fbb f105 8fbd ae82 f6bd
00000080: 60bf 7e3d 71d9 903d 976f c53a 2bd6 d0bd
00000090: d51b 2c3d 08a9 373c e515 ac3c a693 a43a
000000a0: a5cb d9bd 870c b6bc fc37 4bbb d393 51bc
000000b0: 1bdb 22bd df78 5c3b 1ede 823c 5cde 35bc
000000c0: 4b2c c2bd b536 01be f298 d03c ccb3 bcbc
000000d0: 8952 393d 5686 fc3c 130a 1f3e 5101 c9bd
000000e0: 6c58 963d 36a4 9f3d bb3c 1b3e 73af c13c
000000f0: b779 62bd 9d65 dc3b cfd9 b4bc 49d9 cd3c
00000100: 6aaf 91bd a1e4 07be 819d 07be 1b10 bdbd
00000110: 2132 f9bd ed79 6ebd 64c6 b33c ab94 c3bd
00000120: a4a8 d7bd 7766 cabd 3647 0fbe 2160 ef3d
00000130: 0e2f aabc 245a ddbc 2819 febb 4548 143d
00000140: 8d5c 8fbd 1290 9cbd cd2f 04be c6ae 6bbc
00000150: 8caf 29bb 492a b2bc 482f 7cbd 38eb d1bd
00000160: 83c7 cbbd 85a8 20bd 97c8 583e b732 293e
00000170: 377c 49bc e088 54bd 85e1 933d 498f cc3c
00000180: 20bf 1c3e b7b3 1c3e 8845 e03d 381e 1f3d
00000190: 95bc a03c 2377 a6bd 4201 b43c 2399 a13d
000001a0: 9a6c 353e 5efd 62bd 2d65 c4bd aae3 88bc
000001b0: 1567 ce3d 5243 313c 5657 d0bd f64a bf3d
000001c0: 56a1 5d3d c7b3 db3c c510 dfb9 83dc dfbd
000001d0: e0b5 1dbd 89a8 603d ae4c cb3c ca6d 93bd
000001e0: 9adc eebc 35d7 b6bd 0fdb e0bd 3a90 d7bd
000001f0: b5de 27be 2aab 7c3d 6f5c 9a3d c0df 0f3e
00000200: 5551 1c3e c8bd 1ebb ca9f 95bc f226 de3d
00000210: 5651 e63d a92b f33d a631 703d 3b9a 6c3d
00000220: 4fe7 113e fb05 f33d 4627 b43d 7cb7 25bd
00000230: 3416 f3bd 4dde aabb 7047 2d3d 8e5e 4abd
00000240: 76a7 a3bd c554 aabd 73ba eabd 07a4 0abe
00000250: 91d4 e0bc a01b dbbd 1ab7 cfbb 9b10 8fbc
00000260: 4ad1 4c3d a6d1 30bd 6c5f 923b 7ce8 973d
00000270: 3401 f3bc 372a d03d e100 c23b 841d cdbd
00000280: 9f45 58bd 0a62 d03d da61 613d e08d ee3d
00000290: 44b2 39bd bfe8 9a3c a44b 04bc e976 f9bb
000002a0: 9ac6 04bd a9e2 10be 3aba 7b3d 637b 9cbc
000002b0: 217a 44bb ad60 26bc 807c 16be 8e2c a0bd
000002c0: d14d 293d 5a60 48bd cfd9 86bc b2cb 8f3d
000002d0: b8f9 303d a63f f73d 2439 0bbe 5984 c3bc
000002e0: eb82 103d 727a efbc 87cb 84bd 38b5 3cbd
000002f0: 07bf 4dbd 0845 123d 01ab bb3d c918 0d3d
00000300: 1500 743d c8cd 763d 81f3 c93d 287e 623e
00000310: 3f0b cd3d f0ab 4b3d 673f f43c f726 08be
00000320: acda 883d 31d4 95bd 809a aa3c 7612 6dbd
00000330: 0e10 3fbd d9b2 6c3c c38e 91bd d3ec 5fbd
00000340: 77db ea3b bcc7 39bd 161b e23d b7c8 4a3b
00000350: 4973 923d 11a5 9b3d 41f2 2b3c 75ce f33d
00000360: ae7d 193d 70be cd3d 2526 a13c 997b efbd
00000370: 4b1c f0bd 61af debd f40e a5bb ede4 95bd
00000380: d01b bebd 3ae9 0b3e 3b8b 86bd 5919 763d
00000390: 679b adbd d13d a7bd badc d43c 5003 0fbd
000003a0: 38c6 4dbc f8be dfbd fd55 3d3b 37df b83d
000003b0: 9b01 c83d a96d c0bd 88c2 4abd 317e ec3c
000003c0: 5921 c23d a8ce aa3d d0b6 e83b b0bf 953c
000003d0: f4bf 4ebd 15f5 0abe 765e b9bd e335 3abd
000003e0: 0d00 4b3d 0092 bfbd ecd8 47bd 207d 383d
000003f0: c0f5 31bc 7734 eb3d f2a7 273e af32 b4bd
-0.040834177 0.027683359 -0.19097032 -0.04198402 0.041666124 -0.061817627 -0.05134008 -0.14223997
0.020668974 0.022024574 0.09395624 0.014813057 -0.041341044 0.016459882 0.052119687 -0.12707113
-0.070754565 -0.0002960147 0.035027657 0.048967354 0.0437863 0.084541716 0.054465707 -0.009165469
-0.10732077 -0.027944444 -0.15431441 -0.036780704 0.018004354 -0.0038987116 -0.06983555 -0.12036644
0.06219423 0.07072724 0.0015063164 -0.10197099 0.04201873 0.011209734 0.021006534 0.001255621
-0.10634545 -0.02222277 -0.003100871 -0.012791592 -0.039759737 0.003364138 0.015975054 -0.011100378
-0.094811045 -0.12618525 0.025463555 -0.023034953 0.045244727 0.030825775 0.15531187 -0.09814704
0.07341084 0.077949926 0.15159886 0.023643231 -0.055291858 0.0067259804 -0.022076515 0.025128024
-0.07113536 -0.13270809 -0.13243677 -0.092315875 -0.121677645 -0.058221746 0.021945186 -0.095498405
-0.105302125 -0.09882825 -0.13992009 0.11688257 -0.02077439 -0.027020521 -0.0077544637 0.036201734
-0.070000745 -0.07644667 -0.1290886 -0.014384931 -0.0025891988 -0.021748679 -0.06156853 -0.102499425
-0.09950163 -0.039223213 0.21170269 0.16523252 -0.0122976815 -0.051888347 0.07220749 0.024970667
0.15307283 0.15302931 0.10950762 0.03884718 0.019621173 -0.08128192 0.021973256 0.07890537
0.1771721 -0.05541741 -0.0958961 -0.016710121 0.10078255 0.010819273 -0.10172908 0.093404695
0.05410894 0.026819123 -0.0004254637 -0.10930731 -0.038503528 0.054848228 0.024816837 -0.07198675
-0.029157925 -0.08927766 -0.10979282 -0.10525556 -0.1639355 0.061686672 0.075371616 0.14050198
0.152654 -0.0024222005 -0.01826467 0.10847272 0.11245982 0.11873562 0.0586411 0.057764273
0.14248393 0.11866375 0.08796553 -0.040458187 -0.11869469 -0.0052144886 0.042304456 -0.04940658
-0.07990925 -0.0831695 -0.114613436 -0.13539134 -0.02744511 -0.106986284 -0.006338966 -0.017463973
0.05000428 -0.043168686 0.0044669416 0.0741739 -0.02966366 0.10164302 0.005920515 -0.10015395
-0.05280077 0.101749495 0.05502496 0.11648154 -0.045336023 0.01890981 -0.008074675 -0.007613052
-0.032415964 -0.14148964 0.061456896 -0.019101804 -0.002998002 -0.010154885 -0.1469593 -0.07820998
0.041333977 -0.048920013 -0.016461281 0.07021274 0.0432069 0.12072687 -0.13596016 -0.02386682
0.035281103 -0.029233191 -0.06484132 -0.04607126 -0.050231006 0.035710365 0.09163476 0.034447465
0.05957039 0.060254842 0.09860898 0.22118437 0.10011911 0.04972452 0.029815389 -0.13296114
0.06682333 -0.07315863 0.020825624 -0.057878934 -0.04664617 0.0144469375 -0.07107308 -0.054669213
0.0071672755 -0.045356497 0.110403225 0.003094239 0.07150895 0.07599843 0.01049477 0.11904613
0.037473373 0.10046089 0.019671509 -0.11693496 -0.117241465 -0.108732946 -0.005037183 -0.07319055
-0.092826486 0.13663188 -0.06569525 0.060082767 -0.08476906 -0.081660874 0.025984157 -0.03491527
-0.012559466 -0.10925096 0.0028890364 0.0902695 0.09765931 -0.09395916 -0.049501926 0.028868767
0.09479017 0.08340198 0.007101871 0.01827988 -0.05047603 -0.13570054 -0.0905122 -0.045461547
0.049560595 -0.09354019 -0.048790857 0.045041203 -0.010861814 0.11484616 0.1637266 -0.0879873

conv2.bias f4 [20]
00000000: 1861 083d 4094 3fbd 844c 123d 6bfe 88bd
00000010: 0724 61bc ce7b 87bb f776 37bc 9fc1 a33c
00000020: 0f66 22bd 6927 c7bc 176a 2f3d f0f0 a1bd
00000030: 0a65 35bd 4795 b73d 63cc 45ba 9b62 cabd
00000040: 9267 6f3c 63de ccbd f1e5 503d f8c9 7c3d
0.03329572 -0.04677224 0.035717502 -0.066891514 -0.0137415 -0.0041346317 -0.011197797 0.019989787
-0.039648112 -0.024310784 0.042825785 -0.07907283 -0.04428581 0.08964019 -0.00075454096 -0.09882089
0.014612095 -0.100033544 0.05100054 0.06171605

fc1.weight f4 [50, 320]
00000000: f472 613a d6da 94bc d067 4dbd 2575 223d
00000010: a42f d33d 453d aebd 1b49 a0bc e03b 953d
00000020: cd47 ed3c d695 34bd a9b6 803d 924f f13c
00000030: ffff a73c 4d53 b5bd bd02 3cbd 821a 9cbd
00000040: 4614 853d 3a04 8e3d 2f2d 96bc 1b85 bb3d
00000050: 9910 ee3d 9f75 343c 19a9 783d 471a 1d3e
00000060: f31e 283d 767f fabd 2e02 2a3d d4ac 463d
00000070: a29a 8b3b 56c8 d0bd 0b10 3bbd 6cf2 49bd
00000080: 9bd6 2abd 2688 8fbb febd 44bd 95fe 56bd
00000090: d074 cc3d 6a51 673d e18b 0bbc 8fb6 9f3d
000000a0: 3a3e 273e c120 933d 00e3 a43c 2e9c afbc
000000b0: f301 95bd a988 3abd c38a 793c 9a47 67bd
000000c0: fa41 d53c 1a8a 883c 622b be3c 40ca af3c
000000d0: 613f 523b 5655 ba3c 1032 d9bc 014d f8bc
000000e0: 3dda 0bbd f204 3cbd 6492 c6bc ddde 923c
000000f0: 0956 6ebd 4e74 3cbd 653b ea3c 234b 9ebd
00000100: 3a64 1e3d 873d 07bc a4a8 993c cf2b dcbc
00000110: 2fc5 6a3d cc8c 3bbc 4b90 b4bc 6c5d c6bb
00000120: c64b 78bd 6229 b3bd 1f61 2abd b705 a9bd
00000130: 63ab b33c 10b0 783d b995 2a3d 05ea 09bc
00000140: dc42 29bd 83dc f83c 4072 9b3b 5971 36bd
00000150: eec8 c3bc 7ef9 41bd 7a77 dcbc 5f13 ce3c
00000160: 7056 22bd 36ae 2abd c8ab c1bd cedb 6ebd
00000170: 32dd dd3d ec3b a83d b8b8 383e a5cd 953d
00000180: b730 4f3d 7831 97bc 1fcc a73d 169b 8d3d
00000190: b67c 0c3b a6cb 86bd 1c12 5ebd 75ce f3bc
000001a0: 53e2 07bd 404e f0bd a6fe c63c a5be d83c
000001b0: d01c 5a3d 2765 40bd 178d 59bc 3705 493e
000001c0: 9a0a 533c 7310 bebb e325 623d 48e1 913d
000001d0: f28e f83d 1f39 b33b 77f2 90bc bbaf 383d
000001e0: efb0 253e 33ab 49bb c744 1dbd fb33 66bc
000001f0: e8b7 48bd 208e aabd 40bd acbd df22 62bd
00000200: 3eef 95bb 840f 083d 66ce a53d 6917 a93d
00000210: 8f68 ed3c 476b ff3d 35d5 123e f56b e03d
00000220: 507f a73d d72e 603d 3a44 063b 957a 1e3d
00000230: 752f 96bd 87d4 1bbd 865a 5cbd c399 56bd
00000240: 0965 3a3c 760a fdbc b4da 37bd 282e 3b3d
00000250: c4f7 013d 88ee 16bd 51e3 b43c dc97 fb3c
00000260: 51b2 62bd 3e1e e3bc bcc3 1cbd ec7b 4abc
00000270: 775c fd3d 4413 053e c2a0 2d3d f63e 483d
00000280: 370f 8a3d d4a7 e5bc 00a2 eebd 0707 82bc
00000290: 44e9 ca3b cd16 cbbd 6512 0d3d b549 dcbd
000002a0: 1991 87bd e9d6 173a 1e26 71bb 166d ac3c
000002b0: 31d0 d13d 3c11 f33d 9347 143e 177b 7c3c
000002c0: f1bd 373d 4bee 3dbd 5672 30bd 5097 93b7
000002d0: 8f6e 093d f7f6 be3d c8d7 b43c 71f8 2c3c
000002e0: f36e 0cbd 7479 42bd 85e0 03bb 767f edbc
000002f0: e5f3 463b b8f4 e43d 7f60 3f3b f8df 593d
00000300: f700 60bc 79b6 29bd b4e5 0cbc 1919 c5bd
00000310: e0bf f43d c7e5 6a3b 5e23 22bc 612c 84bd
00000320: b25b 5e3e 68e0 2fbd 8e7d 683b cdc2 123d
00000330: b768 86bc a13a e4bd 23ad 9b3c d7e5 273c
00000340: 928e b8bb 3ff0 bf3d 3286 de3d 9672 4a3d
00000350: bf49 0bbd 1cb5 4fbd 4dc7 b93d 00db 85bc
00000360: e743 24be 2528 3cbd c772 223a 2f48 58bc
00000370: 4db5 4f3c 2dc2 b9bc ac23 35bd ca3d 5ebd
00000380: 2b6a 933c be33 173b 2bf1 b7bd f4ff 4fbd
00000390: 8f7d a03c 034c 803c f56d 45bd fb56 233d
000003a0: bdd6 d9bc e9da 36bd 4ab3 88bd 4209 d53a
000003b0: ef9f 31bc 4d4f abbd 9122 333d 8be8 b03d
000003c0: c3e7 07bd bf7e c8bd 9700 60be 2992 dcbd
000003d0: f164 0b3b 11ae f3bc 39c4 80bd 2d52 3c3d
000003e0: 2a46 a83d 78e7 a13d 4516 b03d 3968 a9bb
000003f0: 545b fcbc 4b0b dabb a34b 8b3d b9ce 083b
0.0008600198 -0.018170755 -0.05014783 0.0396625 0.10311821 -0.0850778 -0.01956611 0.07286811
0.028964901 -0.044088207 0.0628484 0.029456887 0.02050781 -0.08853779 -0.04590105 -0.076222435
0.064980075 0.069344 -0.018332092 0.09156247 0.116242595 0.011014371 0.06070814 0.15342055
0.04104514 -0.122313425 0.041505985 0.048504665 0.004260377 -0.10194461 -0.045669597 -0.049303457
-0.04170857 -0.004380244 -0.048032753 -0.052488882 0.09983218 0.056474127 -0.008517236 0.07798492
0.16332331 0.07183982 0.020127773 -0.021436777 -0.072757624 -0.045540486 0.015230837 -0.05646477
0.026032437 0.016667414 0.023214046 0.021458745 0.0032081234 0.02274577 -0.02651313 -0.030310156
-0.034143675 -0.045903154 -0.024239726 0.017928535 -0.05818752 -0.046009354 0.028592775 -0.07729175
0.038669802 -0.008254415 0.018757172 -0.026876358 0.057316955 -0.011447143 -0.02204146 -0.006053617
-0.06061914 -0.087481275 -0.04159653 -0.08253043 0.02193231 0.06071478 0.041646693 -0.008417611
-0.041323528 0.030378586 0.0047438443 -0.04454169 -0.023899522 -0.047357075 -0.02691244 0.025155721
-0.039633214 -0.041670047 -0.09456593 -0.05831509 0.10833205 0.08214554 0.18039215 0.07314614
0.050583567 -0.018456206 0.0819323 0.06914346 0.0021436638 -0.065818116 -0.05421649 -0.029761532
-0.033174824 -0.11733675 0.024291348 0.026458094 0.053250134 -0.046971466 -0.013278267 0.19630896
0.012880946 -0.0058003007 0.055211913 0.07123047 0.1213664 0.005469456 -0.017693741 0.045089465
0.16180776 -0.0030772209 -0.03839567 -0.014050479 -0.04900351 -0.083278894 -0.08434534 -0.055209037
-0.004575639 0.03321792 0.08096008 0.08256418 0.028980521 0.124716334 0.14339145 0.10958091
0.0817858 0.05473217 0.0020487444 0.038691122 -0.073332705 -0.03804448 -0.053797267 -0.052392732
0.011376628 -0.030888777 -0.044886306 0.045698315 0.03173043 -0.036848575 0.02208105 0.03071206
-0.055345837 -0.027724382 -0.038272604 -0.012358647 0.12371152 0.1299563 0.04238964 0.04888817
0.06741183 -0.028034128 -0.11651993 -0.015872492 0.006192358 -0.09916458 0.03444137 -0.10756246
-0.06619472 0.0005792217 -0.0036796401 0.02104811 0.102447875 0.118685216 0.14480428 0.015410206
0.044858877 -0.046369832 -0.04307779 -1.7594226e-05 0.033552703 0.093244486 0.022075549 0.01055728
-0.034285497 -0.047479108 -0.0020122838 -0.028991442 0.0030357775 0.11179489 0.0029201803 0.05319211
-0.013672105 -0.041433785 -0.008599687 -0.096239276 0.1195066 0.0035842524 -0.0098961275 -0.06453777
0.21714666 -0.04293862 0.0035475227 0.035830308 -0.016407354 -0.11143995 0.019003456 0.010247669
-0.00563223 0.09371995 0.108654395 0.049425684 -0.034005877 -0.05070983 0.09071217 -0.016339779
-0.16041528 -0.045936722 0.0006196913 -0.013200804 0.012677503 -0.022675598 -0.044223472 -0.054258145
0.01799496 0.0023071612 -0.08981546 -0.050781205 0.019591121 0.015661245 -0.048200566 0.039877873
-0.026591653 -0.044642363 -0.06674822 0.0016253369 -0.010841354 -0.08364735 0.043734137 0.08638104
-0.03318001 -0.097898 -0.21875225 -0.10770065 0.0021269883 -0.029746087 -0.062874265 0.045976806
0.08216508 0.07905477 0.085979976 -0.005169895 -0.030805267 -0.0066541783 0.06801536 0.002087517

fc1.bias f4 [50]
00000000: f8ae 9a3d 2110 733d 7404 863d fa26 703d
00000010: 194d 823d ec87 2d3d 65b0 693b fc97 d8bb
00000020: 5d75 843d b158 693d 0c94 333d 656e 103e
00000030: efca fb3b 32f3 913d a7eb 133d d98a 49bc
00000040: 5c42 b53d 89a4 953d 4b28 853d 7fd9 fa3c
00000050: 9336 573d 87e1 a33d 3000 d2bc 69d9 833d
00000060: 51ae 923d 3ff8 81ba 6977 da3d 2edf 813d
00000070: de9a 043d c7d2 fd3c 1121 803c 8853 823d
00000080: 41d6 783d 7fe3 a33c 2357 433c a6d1 053e
00000090: a2c7 c33d a515 65bd 6f4a 8a3d 4528 8a3b
000000a0: af47 323d f321 0c3e f4ce 743d 477c b0bc
000000b0: 7da4 653d f052 933d 2e27 803a 8c90 cc3c
000000c0: f3d4 2f3d 883b f33d
0.07552904 0.059341554 0.06543818 0.05863092 0.063623615 0.042365953 0.0035658118 -0.006609915
0.06467698 0.05696935 0.04384236 0.14104612 0.0076841037 0.07126464 0.036113407 -0.01230117
0.08850548 0.07306773 0.06501826 0.030621288 0.05254228 0.08002 -0.025634855 0.06437952
0.071621545 -0.0009915902 0.10667307 0.06341396 0.032374255 0.030984296 0.015640767 0.063635886
0.060751203 0.02000594 0.0119226305 0.13068256 0.09559561 -0.055928845 0.06752478 0.0042162263
0.043525394 0.13684826 0.05976768 -0.021543635 0.05606507 0.071935534 0.0009777301 0.02497127
0.042927694 0.11876589

fc2.weight f4 [10, 50]
00000000: c288 20be ac43 56be 241a 2b3e 58d2 823e
00000010: 4100 a6be 16fc edbd 9067 85be 5ad4 6bbe
00000020: 64c7 5dbe d988 86be fbe5 87be 0329 79be
00000030: 28d1 26be dbfa 773e 30a2 973e cb33 573e
00000040: 7abb 3d3e 09ee 913e ba0e c73d dd37 64be
00000050: f6d4 86be 527e 77be 5e34 81be 4913 dbbe
00000060: 4279 50be 2a37 b1be 3fb9 c0be 122e 84be
00000070: 7f27 b3bd 35d6 8b3e 6541 3abe 78d2 71be
00000080: b053 933e 65e0 463e 6edd 60be 5640 833e
00000090: 7549 b63d 0a34 7a3b c9ff 163e e446 8abe
000000a0: ffbe 42be d9a2 9cbe 8d8f 3f3e f17c 86be
000000b0: f595 d0bd 69a5 833e 77ca 1abe b3e1 5cbe
000000c0: 9a73 573e a3c4 6f3e bc78 4dbe 2073 313e
000000d0: 023e acbe ba00 4f3e 65a1 5e3e db1b 763e
000000e0: 533d a2be 4226 103e 09fe 58bd a964 85be
000000f0: d673 10be 38c9 8d3e b252 88be 4976 bbbe
00000100: 19c9 09bd 3b68 b8be df6f dc3d bfb7 3fbe
00000110: cd50 90be 0508 2b3e d934 71be 37ba f3bd
00000120: 0140 763e d4cf 433e b5cd 603e 7111 b4be
00000130: 2b3e b1be 5518 a23e c910 403e d376 c2bd
00000140: d91e 503e 544c 41be 3bf4 92be 6882 a5be
00000150: 8b49 753e d91b a9bd 51d8 36be 4505 8ebe
00000160: b4d2 b53d a2de 903e 721f 31be 1c5d d63d
00000170: 2d55 90be b4f0 97be 24f0 463e f82b 2fbe
00000180: 3400 96be 390d 6e3e 2e6e cabe 823f 8dbd
00000190: 08c3 4ebe 4438 ffbd 68f9 dbbd 842a c53d
000001a0: b91e 5bbe 4d4d 6e3e c462 233e 1909 e13d
000001b0: ef48 823e eab4 063e 448d 0bbe 7b29 863e
000001c0: b893 613e 56ce 683e f453 513e 2036 f23d
000001d0: 6409 b33d fe8d 50be 9dfc 92be e397 9bbe
000001e0: a53c 16be c1eb 8e3e e30c 69be 49c1 81be
000001f0: 3f6d 27be debd 1fbe b3e1 90be b090 f2bc
00000200: 0dac 96be 25f5 38be 06f4 01be 6c7e 0abe
00000210: f2e9 cfbc 2455 3bbe df1c 843e bf33 333e
00000220: bc57 c0bd 5382 7abd 1804 023e 3d4b 323e
00000230: 2f49 513e 540c 7a3e 2a59 7dbe 9f91 a0bd
00000240: 0e7d 153e 61e4 863e bd72 1dbe 0599 683e
00000250: 281d 7abe 2b23 393e dd66 743d bf4c 7a3e
00000260: 5a9c 343e 2660 9abe 9f7d b2bd 3f7b 94be
00000270: 5a26 d63d 64df de3d c067 86bd 7d9f 1c3e
00000280: 55d7 f7bd 92b6 863e 69fc 1ebe 827b 9cbd
00000290: af3b 23bd 1dde 1abe 05c1 efbd 7445 2bbd
000002a0: 2f28 dbbd 573d 513e ed0c 8a3e e3ef 9c3e
000002b0: 615d b53c ed44 14be cc4d a6be 0e18 2dbe
000002c0: 688e 343e 9bbc f2bd f5f4 923e 4f71 41be
000002d0: 0bd6 c4be 6460 9a3e 2e68 5fbe a09c 433e
000002e0: 31fb 36bd 4baf 28bd 3e34 7d3e 74b0 d6bd
000002f0: bd4f 89be 14ae 3ebe e888 363e e914 833e
00000300: 3002 56be bd47 dd3d 4946 733e d032 18be
00000310: 6933 20be 7d5f 033d 0d2f 4fbe 54ce 5c3e
00000320: cf39 4b3e bd2d 473e 9f4e 83be b19d 433c
00000330: 872b 653e f92b 5e3e 3ff3 2f3e 3a73 49be
00000340: 1491 80be 4c43 8fbe cbc4 883e 38a2 a23d
00000350: aaa1 9f3e 2d4c 57be 0eee 93bd 75bc 263e
00000360: 6899 a2be 3f89 68be 4eca f5bd fd13 76be
00000370: 35a8 73be faf9 01be 1b0b 6d3e 6fe8 6f3e
00000380: 61eb 2c3e f668 813e 2d24 a73d 844f 11bd
00000390: 9600 ecbd 2e78 98be ed35 1b3e 5d15 823e
000003a0: 62c6 97be 7150 c1be c069 ffbd 7830 a6be
000003b0: 9ac7 57be fde8 bd3e 5b61 203e e567 abbd
000003c0: 9f81 9dbe 1352 6abe 5ee7 3e3e 564f d3b9
000003d0: b96e 56be fe41 73bd f604 25be 1d86 70be
000003e0: 4f97 723e 1657 32be 48b2 203e f4a6 e3bd
000003f0: 1db3 233e 7c13 84be efdd dfbd 69cc 66be
-0.15677169 -0.20924252 0.1670919 0.25551105 -0.3242207 -0.11620347 -0.26055574 -0.23030224
-0.21658093 -0.2627628 -0.2654265 -0.24332051 -0.16290724 0.24216788 0.29615927 0.21015851
0.18528548 0.2850192 0.09719606 -0.22286935 -0.2633435 -0.24169281 -0.25235265 -0.4278815
-0.20358756 -0.346124 -0.37641332 -0.258164 -0.08747768 0.27311864 -0.18189009 -0.23615444
0.28774786 0.19421537 -0.21959469 0.25635022 0.089007296 0.003817799 0.14746012 -0.2700721
-0.19018172 -0.30592993 0.18707104 -0.26267198 -0.10184852 0.25712135 -0.15116297 -0.21570472
0.21040192 0.23414855 -0.20065588 0.17329073 -0.33641058 0.20215121 0.21741255 0.24034064
-0.31687412 0.14077094 -0.05297664 -0.2605336 -0.14106688 0.2769258 -0.26625592 -0.36613682
-0.033639047 -0.36017022 0.10763525 -0.18722437 -0.28186646 0.16702278 -0.23555316 -0.11900752
0.24047853 0.19122249 0.21953471 -0.35169557 -0.34617743 0.3165919 0.18756403 -0.0949532
0.20324267 -0.18876773 -0.28701958 -0.32326055 0.23953836 -0.08257265 -0.17855956 -0.27738395
0.08878079 0.28294855 -0.17297152 0.10466978 -0.28189984 -0.2967583 0.19427544 -0.17106616
-0.2929703 0.23247232 -0.39537185 -0.06896879 -0.20191586 -0.12461904 -0.1074093 0.0962725
-0.21398439 0.23271675 0.15955645 0.10988063 0.2544627 0.1315495 -0.13628107 0.26203522
0.22029006 0.22734961 0.20442182 0.1182673 0.087420255 -0.20366666 -0.28708354 -0.30389318
-0.14671572 0.2791424 -0.22758822 -0.25342777 -0.16350268 -0.15599772 -0.28297195 -0.029610008
-0.2942814 -0.18062265 -0.12690744 -0.13524789 -0.025380109 -0.18294197 0.25803277 0.17500208
-0.09391734 -0.061159443 0.12696874 0.17411514 0.20438074 0.24418765 -0.24741045 -0.07840275
0.14598486 0.26346114 -0.153758 0.22714622 -0.24425185 0.18079822 0.05966841 0.24443339
0.17637768 -0.3015148 -0.087153666 -0.2900028 0.10456534 0.10882452 -0.065627575 0.15295215
-0.12101618 0.26311165 -0.15525974 -0.07640745 -0.03985184 -0.15123792 -0.117067374 -0.041814283
-0.10701024 0.20433556 0.26962987 0.3065177 0.022139253 -0.14479418 -0.3248123 -0.16903707
0.17632449 -0.1185238 0.28702512 -0.1889088 -0.38444552 0.30151665 -0.21817085 0.19102716
-0.04467315 -0.041182797 0.2472696 -0.104828745 -0.26818648 -0.18621093 0.17825663 0.2560189
-0.20899272 0.108046986 0.2375728 -0.14863133 -0.15644611 0.032073487 -0.20232792 0.21563083
0.19846271 0.19451042 -0.2564592 0.011939452 0.22379886 0.21696462 0.17182635 -0.19672862
-0.25110686 -0.2798103 0.2671264 0.07941097 0.31178027 -0.21025153 -0.0722314 0.16282828
-0.31757665 -0.22708605 -0.12001477 -0.24031062 -0.23794635 -0.12693015 0.23148768 0.2342851
0.16886665 0.2527539 0.08161197 -0.035476223 -0.11523549 -0.2977919 0.1515729 0.25406924
-0.29643542 -0.37756684 -0.12471342 -0.32458854 -0.21072236 0.37091818 0.15662138 -0.08369426
-0.30762956 -0.22882871 0.18642947 -0.00040304166 -0.20940675 -0.059389107 -0.16115174 -0.2348866
0.23690532 -0.17416033 0.15693009 -0.11115828 0.15986295 -0.25796115 -0.10931002 -0.22538914

fc2.bias f4 [10]
00000000: 89ca fb3d 5b0d 203e 3af2 64bd d40d e3bd
00000010: 475f 5abd 86f6 fe3d 85ba 92be 2116 36be
00000020: 3e2d 0c3e a6f1 0ebe
0.1229449 0.15630095 -0.055895068 -0.11086622 -0.05331352 0.12449364 -0.28657928 -0.17781879
0.13689134 -0.13959369
