playground/defense_project/models/defense_project-model.pth (torch, 251529 bytes, 10 tensors)

conv1.weight f4 [6, 3, 5, 5]
00000000: dffe 5abd 7f56 483d 45fd 3bba c59d 6bbd
00000010: 3cca 7ebd ef38 d0bc c24d bdbd 99a4 273d
00000020: 4007 0abd bf46 7c3d 9256 e23d 37b8 073e
00000030: 99e7 6e3d 5503 ea3b 3472 28bd e437 8e3b
00000040: 2a3d f43d ea12 003e 4447 b33c c4ab b3bc
00000050: c4d4 b43d 5d73 e3bc 59d3 9e3d 0a73 a13a
00000060: fdc9 8f3c f9d8 dbbc 6293 083a 277b 923d
00000070: 8ad3 273d c7c3 adbc f0ed 2c3b 3325 f93d
00000080: 6af3 093d 0a32 97bd ae25 283b 9cd5 7fbc
00000090: 94d0 d5bc 6339 ecbc 92a0 953d db85 153b
000000a0: a3cb 46bd 773c 243d 88f0 75bd d0db debb
000000b0: ed1e debc d5bf 213d 4711 473d 5a39 ff3d
000000c0: 8e1c efbd f197 87bd 8a38 5e3d 970f a93d
000000d0: 6aaf f53d 1848 273d f3ab 80bd da45 e13d
000000e0: b6be 943d e90d 243e 500d a93d 6c26 2f3d
000000f0: 5429 de3c 0547 1a3e 5987 383d 8743 25bc
00000100: 3172 3fbd f419 1a3d 7db9 c43d 3098 1c3e
00000110: 97b2 ccbc 2a19 503b 7140 d93d dbbc 253e
00000120: b54d fe3d c2d6 9c3b 307b b5bd c8a8 15be
00000130: b706 bdbd 4655 c43d 06a6 c43d 3280 0abe
00000140: 25b7 55bd 6638 fcbd 290d 51be 586b c3bd
00000150: 6f67 a2bd e422 093e e567 18be 257c 75be
00000160: 859d 10be 4b22 57bd c946 093e 42c9 353e
00000170: 6111 2e3d 6413 ba3c 407a d33d 8b7b 57bc
00000180: ca38 583d 5b68 393e 5578 afbc 339e 073e
00000190: 976e c4bd 5aff 053d 194c 033e 0df1 ff3d
000001a0: 4401 9dbd 1541 193d cd23 8cbc f8de a7bd
000001b0: 8507 65bd 13da cebd 53bf c83d 3388 a2bd
000001c0: 1016 c9bd 2337 5fbc bfe7 9d3c a18f 503d
000001d0: e2aa 2c3e 0de7 3e3e aa6a 52bd 8b0e d53d
000001e0: ab71 36bc 15af 3a3d eabd 0e3e 7d83 de3b
000001f0: b8b4 213e e43f 7e3d bab2 7c3d 3cde ad3c
00000200: 42d6 d4bc 061b 8c3d 7112 b13d 3486 28be
00000210: 673a d7bd 3dde 86bb fcaf b0bc e1ee 2e3e
00000220: d3b2 51bd d574 01be 501f 1bbe 3101 d5bd
00000230: 2693 a1bd c47e 163e b17f 9f3d a9eb 98bd
00000240: bbf8 bfbd 84c7 313d a09d b13c 0691 ecbc
00000250: 9668 d3bc ee08 543d 2374 c03d 29e7 293d
00000260: aed7 b73d f119 32bb 3abd 183d 2ea8 c23d
00000270: 4f48 ca3c 0f2f e1bd f99f 97bc 8c48 193e
00000280: 4dda 4bbc 58e4 87bd 6314 7fbd 6c6c 9ebc
00000290: 44db bcbc 7a3b 4cba e279 90bd a1d7 49be
000002a0: 849d 1cbe c5a7 eabd c5da c4bd b6b2 11be
000002b0: 3c7b 9b3b 0159 e3bd a498 4fbd fb39 9c3d
000002c0: fb3f c6bd 9aa3 23bd a4ef 2bbd 22aa c23c
000002d0: 77d3 353d d929 14be baa9 19be fcc4 22be
000002e0: e2db 063d ff67 14be c902 41bc a56b 2cbe
000002f0: c3a1 88bc 401b e83a 8726 f6bc 1d54 26bd
00000300: 7781 6e3c 25b1 97bd d6bd dc3d 1668 acbd
00000310: 1855 fcbd 8c69 2d3d b258 85bb 3494 003e
00000320: 1551 65bd afbf 963d 762f a83c 93f1 ecbd
00000330: ab03 a43c 612e 92bc 1a2c cfbd 6edc 0dbe
00000340: cfbb 87bd df7a 0c3e 3fa2 8e3d 01ff 9cbd
00000350: bf92 dbbc a03b e63d 4955 3f3e c44c 283d
00000360: 8c91 9fbb 8f03 9cbd 8b22 033d c4c4 2c3d
00000370: 8bda 503d d3af 97bc 39fd e2bc c078 d73d
00000380: 3ef3 473e 0ada 13be fa98 c6bd dcaa 16bb
00000390: a3b4 b8bd 4b68 cfbd 2e8a b23d 6b4b edbc
000003a0: 2f5b 423d ed82 993a 99c3 363d dd03 3cbc
000003b0: f944 98bd ca6f 54bd cc82 c6bd 8cec b73d
000003c0: 4c1f d73d 9783 0e3d 33ea cebd 2da7 70bd
000003d0: 4cfd 2fba 6035 60bd a993 8e3d 74c8 0fbc
000003e0: 1f63 c53d 91d7 d93c ead9 b43d 75db f0bc
000003f0: 1358 e23c b8fb 83bd 464d 923d 191a 35bd
-0.05346572 0.048910614 -0.0007171224 -0.057523508 -0.062204584 -0.025417773 -0.09243347 0.040928457
-0.03369832 0.061590906 0.11051668 0.13253866 0.058326337 0.0071415105 -0.041124538 0.004340159
0.119257286 0.12507215 0.021884568 -0.02193249 0.08829644 -0.02776497 0.07755155 0.001231761
0.01755237 -0.026836859 0.000520995 0.07152396 0.040973224 -0.021211518 0.002638694 0.12165298
0.033679403 -0.07382591 0.0025657224 -0.015614893 -0.026100434 -0.028835958 0.07306017 0.002281538
-0.048534047 0.040096726 -0.06004384 -0.006801106 -0.027114356 0.039489586 0.04860046 0.12462111
-0.11675368 -0.066207774 0.05425314 0.08254927 0.11996348 0.04084024 -0.06282797 0.10999651
0.07262938 0.16020931 0.08254492 0.04276125 0.027119316 0.15066154 0.045050953 -0.010086901
-0.04673976 0.037622407 0.096056916 0.1529243 -0.024987502 0.003175328 0.10607994 0.16185324
0.12417165 0.0047863433 -0.08861387 -0.14615166 -0.092297964 0.09586577 0.09601979 -0.13525465
-0.052176613 -0.12315445 -0.20415176 -0.095419586 -0.07929885 0.13392216 -0.14883383 -0.23973139
-0.14122589 -0.05252294 0.13405909 0.17752555 0.042497043 0.022714324 0.10326052 -0.0131520135
0.052788533 0.18106215 -0.021419683 0.13243942 -0.09591406 0.032714225 0.12821998 0.12497149
-0.07666257 0.037415583 -0.017106915 -0.08196825 -0.055915374 -0.10100188 0.09802117 -0.07936134
-0.09818661 -0.013623985 0.019275544 0.050918225 0.16862062 0.18642826 -0.051371254 0.104031645
-0.011135499 0.045577127 0.13939634 0.006790577 0.15791595 0.06207265 0.061693884 0.021224134
-0.025981072 0.06841092 0.086460955 -0.16457444 -0.10509186 -0.0041158483 -0.02156829 0.17083313
-0.05119593 -0.12642224 -0.15148664 -0.10400618 -0.078893945 0.14696795 0.07788027 -0.074668236
-0.093736134 0.043403164 0.021681607 -0.028877746 -0.025806706 0.05176633 0.09397151 0.041480217
0.089766845 -0.0027176107 0.037289836 0.09504734 0.024692683 -0.10995304 -0.018508898 0.1496908
-0.012442184 -0.0663535 -0.0622753 -0.019338809 -0.023053773 -0.0007790845 -0.07054497 -0.19711162
-0.15294462 -0.11457781 -0.096120395 -0.14228329 0.0047449153 -0.111009605 -0.05068268 0.076282464
-0.09680172 -0.039950944 -0.041976586 0.023762766 0.04439112 -0.14469089 -0.15006152 -0.15895456
0.03292454 -0.14492796 -0.011780449 -0.16837938 -0.016678696 0.0017708316 -0.030047668 -0.04060756
0.014557234 -0.074068345 0.10778396 -0.0841829 -0.12320918 0.042336985 -0.004069411 0.12556535
-0.05598553 0.073607795 0.020530444 -0.11569514 0.02002128 -0.01784438 -0.101158336 -0.13853619
-0.066276185 0.13718747 0.0696454 -0.07665826 -0.026803372 0.11241841 0.18684877 0.041088834
-0.0048696455 -0.07617866 0.032015365 0.042179838 0.05098967 -0.018516457 -0.027708637 0.10521078
0.19526383 -0.14438644 -0.09697147 -0.0022990024 -0.09018829 -0.10127314 0.08717762 -0.028966626
0.04745024 0.0011711993 0.04462013 -0.01147553 -0.074350305 -0.051864423 -0.09692916 0.089806646
0.10504016 0.034793463 -0.10103264 -0.05875318 -0.00067134644 -0.054738402 0.06961758 -0.008775819
0.096380465 0.026592048 0.08830626 -0.02940152 0.027629888 -0.06444496 0.07143645 -0.04421434

conv1.bias f4 [6]
00000000: 5858 3a3e 9e38 863e 41fd 263e 71f5 67be
00000010: 132e 9bbc 1628 a5bd
0.18197763 0.2621507 0.16307546 -0.22652222 -0.018942868 -0.080642864

conv2.weight f4 [16, 6, 5, 5]
00000000: 5f88 1dbc 45a7 843c 8781 4b3d 9689 483c
00000010: fbaa ddbd 9382 b5bb 3914 b93d 2461 82bd
00000020: 1c1f e53c c4ff b8bd cbda 8d3a 859f 80bd
00000030: 79eb e5bc 8ff0 0f3d 9292 6e3c 9abb 8d3d
00000040: 3159 6ebd dc2b ae3c 374a 823d 681d 823d
00000050: f375 6ebd 3d66 6a3d c514 c73d 1f02 80bb
00000060: bdef f03c c7d6 b93c 60fb 06bd 423c 683d
00000070: b48e 8c3c bbcf 913d 1ff1 c839 7916 a4bd
00000080: f04e 4b3d c6d4 953b ce32 34bd 7227 f8ba
00000090: 8e6a 92bd e76d 02bd 9181 043d 21e3 03bc
000000a0: 69c5 27bd 7f94 c2bc 9bca 55bd 988a 9f3c
000000b0: f5ca 7cbd 0128 64bd 0c06 5a3d 708a 823d
000000c0: 8498 8ebd f6ad fdbd 82e5 e13d 03b2 1b3d
000000d0: b6ad a43d 97c0 0b3d 05c4 c23d c8eb 333d
000000e0: b170 393d 446a aabd eae6 2c3c 1041 d43d
000000f0: 83af 87bd d93f 313b 667b 4a3d cb22 b23d
00000100: d957 8d3d 1df9 7c3d 41fb bb3d f3e2 bb3d
00000110: 4f4c a73d 7990 8f3c bf7c 0f3c 2f21 7bbd
00000120: b19c b13d 4649 8cbd 51fe 8ebd 689f f0bd
00000130: b6db b9bd 8e94 c43b fa95 8cbd cc7b 05be
00000140: fa0b cbbd 4c16 acbd fd33 16be 957c 42bd
00000150: 74cb 0ebe 485f 9fbd 8be3 e2bd fca2 4a3b
00000160: ed2d 85bd 3113 35be ed1f 75bd 045c 2abe
00000170: 1221 96bd 7682 c0bd d4ed f5bc a3f4 04bd
00000180: a761 1dbd 6f51 54be 7c75 3cbe 6e54 ccbd
00000190: dfb8 58bd b9c8 333c ea55 ca3c 333c 893c
000001a0: 9158 e23d 043a ac3d f3e3 8b3b bf03 ae3d
000001b0: dc97 193e 063b 83bd ef52 d23d ffac 9b3d
000001c0: 6ae9 173d 3719 a8bd bcb8 323b 1b09 b0bc
000001d0: f456 a3bd d6f1 1b3d 8910 06be 1d7b 62bd
000001e0: 651a e2bd fc71 b0bc 1bee 06be 55a7 9abd
000001f0: 9175 d4bc 0798 593d 4cf3 bf3d a641 313c
00000200: 5381 82bd 8248 c7bd 6f4e 233e cd5f da3c
00000210: f786 16bd eaaf 6ebd 4ba6 6c3d db10 993d
00000220: 8338 53bc 3544 dbbb 8af8 be3c 8885 523d
00000230: abaf 72bc 3f50 c43d c9a0 7f3d 84fc 7bbc
00000240: bc67 a8bd 19a8 b63c 1c86 4f3d 3918 373d
00000250: 388c 8e3d 78c1 83bd 1fc4 a13d c061 0d3d
00000260: 7dc1 033d 2bf3 65bc aa04 813c 6421 50bd
00000270: 424a 27bb 4df3 1f3d 3981 003d 232f 313c
00000280: 757e f53c a79b ea3b 308e 29bd 599e 4abc
00000290: 7f0d c0bd 21dc 673c 3801 dabb 64e8 89bd
000002a0: c424 aabd c5b6 0fbd 520d 89bd 3d4d 3e3d
000002b0: 2a3f cdbc 8812 cabd fcae 3d3d 51fe 133d
000002c0: 4a43 bf3d 2ba4 ba3b 86ab d3bc 1c4b f6bd
000002d0: 1915 d23d 209f 773d 52cb f03d 7f3e 813d
000002e0: d208 cbbc bd79 54bc 1d07 2ebd 2ce2 13bd
000002f0: 5d73 023c 2b79 68bd 7113 d0bd 534c c0bd
00000300: 81f7 e3bd 4307 3fbd b0cc 433c bca4 853d
00000310: 48d1 13bd 2184 5cbd 6191 4fbc 472d ebbc
00000320: 0a1c 8fbd 8c0b 5dbd a2e4 8f3d 67e4 c93b
00000330: 8e91 603d e503 ff3c a8c8 a1bb c5de a03c
00000340: fe58 9d3c d394 833d 6da1 6c3c 7dee 58bd
00000350: abae 35bb f9f9 bcbc bd43 253d 42a3 433d
00000360: 6802 a03d ac04 29bd 61e4 aa3d 657e d2bc
00000370: 4a06 1ebc 6a8c 823d 9f76 eb3d 16e6 81bc
00000380: 588b b43a 54c8 c73d 792f 0c3e 8ae2 033e
00000390: 7378 293e 67b4 233e e081 783d 9655 703c
000003a0: ac21 ae3d 58c7 903b dd8a d03d c1bc 15bd
000003b0: db89 6abd 7738 833d 2f15 77bd bebb a53d
000003c0: 3d16 403d 117a 6abc 55eb ac3d 8f43 d43c
000003d0: 02e5 b5bd 34bd b4bc 1112 0e3c 53b1 30bc
000003e0: dd40 cd3d cfba b6bc 7fd2 a33d 378a 213d
000003f0: 171b a1bd 54b1 ebba 6f45 a53b 940c cbbc
-0.009615033 0.016193042 0.049684074 0.012239834 -0.108236276 -0.0055392473 0.0903706 -0.06366184
0.027968936 -0.090331584 0.0010822652 -0.06280426 -0.028066384 0.035141524 0.014561312 0.06920548
-0.05819053 0.021261148 0.063618116 0.06353265 -0.058217954 0.05722641 0.09720758 -0.003906503
0.029411191 0.022685422 -0.032954574 0.05669809 0.01715789 0.071196996 0.00038326622 -0.08012099
0.049635828 0.0045724837 -0.043993764 -0.0018932654 -0.0714923 -0.031843092 0.032350127 -0.008049757
-0.04095975 -0.02375245 -0.052195173 0.019475266 -0.061716992 -0.055702213 0.053228423 0.06374061
-0.06962684 -0.12386696 0.11030103 0.038011562 0.08040945 0.034119215 0.09510044 0.04392603
0.045273487 -0.0832105 0.010553101 0.10363972 -0.06625273 0.0027046113 0.04943409 0.086980425
0.06901521 0.06176101 0.09178782 0.091741465 0.081688516 0.017524945 0.008757769 -0.061310943
0.08672465 -0.06849913 -0.06982101 -0.11749154 -0.0907511 0.0059991544 -0.06864543 -0.13035506
-0.09914394 -0.0840269 -0.1466827 -0.047482092 -0.13944799 -0.07781845 -0.110785566 0.00309199
-0.065029 -0.17683102 -0.0598449 -0.16636664 -0.073305264 -0.093998834 -0.030020632 -0.032459866
-0.038423207 -0.2073419 -0.18404192 -0.09977041 -0.05291068 0.010973149 0.02469917 0.016752338
0.11052049 0.08409503 0.004269117 0.08496808 0.14999336 -0.06407742 0.102697246 0.07601356
0.037087835 -0.08207934 0.0027270755 -0.021488717 -0.07975569 0.03807243 -0.13092245 -0.05529319
-0.110401906 -0.021538727 -0.13176768 -0.07551447 -0.025934966 0.0531235 0.09372577 0.010818874
-0.06372323 -0.09730627 0.15947889 0.02665701 -0.036749806 -0.058273233 0.057775777 0.07473918
-0.012891891 -0.0066914805 0.023311872 0.051396877 -0.01481239 0.09585618 0.062409196 -0.015380029
-0.08222911 0.022296952 0.050665006 0.044700835 0.06960338 -0.064333856 0.07898735 0.03451705
0.032166947 -0.014035027 0.015749294 -0.050813094 -0.002552644 0.03905039 0.031373236 0.010814461
0.029967526 0.0071596685 -0.041395366 -0.012366855 -0.09377574 0.014151604 -0.0066529773 -0.06733778
-0.08307794 -0.035086412 -0.06691994 0.04646038 -0.025054533 -0.09866816 0.046309456 0.036131207
0.09339006 0.00569584 -0.025838625 -0.12026045 0.1025793 0.060454488 0.1175753 0.06310748
-0.02478448 -0.012968478 -0.042487253 -0.036104366 0.007962075 -0.05675618 -0.10159958 -0.09389558
-0.11131192 -0.046637785 0.011950657 0.06525561 -0.036088258 -0.053836945 -0.012668938 -0.028708113
-0.0698777 -0.05396609 0.0702603 0.006161261 0.05482631 0.031129787 -0.00493725 0.019637475
0.019207474 0.0642487 0.014442784 -0.052961815 -0.0027722518 -0.023068415 0.040347803 0.047763117
0.07812959 -0.04126422 0.08344341 -0.025695035 -0.009645054 0.06374438 0.114972346 -0.015856784
0.0013774438 0.097550064 0.13689984 0.12879387 0.16549854 0.15986787 0.060670733 0.014668843
0.08502516 0.004418295 0.10182736 -0.036556963 -0.057260375 0.06407254 -0.060322937 0.080924496
0.046896208 -0.014311329 0.084433235 0.02591112 -0.088815704 -0.022062875 0.0086713 -0.010784465
0.10022137 -0.022305874 0.07999133 0.039438453 -0.07866495 -0.0017981925 0.0050436775 -0.024786271

conv2.bias f4 [16]
00000000: 76fb 273e 70b7 22be a562 41bd f3c0 4d3e
00000010: 0f7c bfbd 4285 acbd e53d b4bd 723b 153c
00000020: f97c 77bd eddc 0b3e 4aa8 483d 1437 79be
00000030: e987 a63d 88c8 203e 6b70 513d fd7e 7a3d
0.16404518 -0.15890288 -0.047213215 0.20093136 -0.09349834 -0.084238544 -0.08800868 0.009108411
-0.060421918 0.13658495 0.048988618 -0.24337417 0.081313916 0.15701497 0.0511326 0.06115626

fc1.weight f4 [120, 400]
00000000: 8115 843d cc4d b7bc 255b 69bd ce7a 41bd
00000010: 16a9 08be c4b1 66bc 04dd 9e3d 1e81 9fbd
00000020: 672f b0bd 3557 acbb 3b28 ae3b e5df c0bc
00000030: 4f86 3ebd 6e77 7ebd 2494 79bd f668 673c
00000040: 6d9b 99bc 9c15 91bd 12d6 11bd bd04 c8bd
00000050: 136b df3d 8931 263d 9cfc 653d 3037 2cbc
00000060: bd4f 383c 9f28 b9bd 0ecd 91bd 535b 903c
00000070: 06aa 483d 198f adbc 3573 24bd 1259 c63b
00000080: fff8 153d 6b5d 9d3d 03df 283d 316e 9c3d
00000090: 32bd bb3c 9d9c ee3c bce8 a33b 6667 86bd
000000a0: 4bf4 e2ba bb1a 6c3d 08dd 7fbb 99c1 6a3c
000000b0: 2308 46bd 3122 673d bf17 973d 30d7 043d
000000c0: 85c9 c43d d282 893c ca93 463e 1625 f33d
000000d0: 52aa b93d e5e0 1ebd 3cc0 d7bc dc42 d23d
000000e0: 63df bf3c 6bc6 1b3d 9d9e 19bc 22b2 03bd
000000f0: ba8d 30bc f1ce b4ba 675e 52bd 4f3c b0bd
00000100: 945c 223d 6d83 83bb 71f5 133d c94e c03b
00000110: 35b8 b5bc 037c 8dbd cc01 53bd 7dbe 4d3d
00000120: c97a 9c3d 6330 543d a007 6abd f128 da3d
00000130: acbb 7f3c 998b 17bc fdb6 d5bb 9b63 e03d
00000140: acbd 2a3d 103c 953b 284a c2bd 901b 9fbd
00000150: 6df2 463b 7449 883c 6fdb 903b 489f 2bbc
00000160: e059 24bd 3b04 013a 53ba ddbc 0587 61bd
00000170: 5b38 5ebd 381a 4cbc 5379 913d 13eb 2ebd
00000180: 349f 8e3c 016e 9abd 6d20 e63c bcf7 953d
00000190: 3306 e7bc e1b1 cd3b a28f 803d 7bf8 bf3d
000001a0: 9da0 353d c2ee 243c 71c0 adbb e37b 153b
000001b0: 0f35 073e 24a8 163d 8276 433d 10ab 43bb
000001c0: 479d 893c 706d acbd 0b4e 13be 9a75 f2bc
000001d0: 7a5d 52bb b09b ffbb 82e1 843c 5adc 9abd
000001e0: 37de a33c e1a0 87bd fa56 99bc cfc2 e2bc
000001f0: 16e1 dc3b f324 79bd 8aec d73b b925 053d
00000200: feb8 db3c ca3e 22bd ac12 de3c 90be dabc
00000210: 45ee 21bd acb6 693d ac3e 65bc 06f7 c03d
00000220: 8d9b 36bc b932 003b 6267 993d f817 253c
00000230: b8b7 093d 6c37 253d d2ca b53b 0b6c 9cbd
00000240: 8770 82bd 6715 713d 1086 903c c293 0e3d
00000250: c918 923d a9bc 0c3d 731a 73bd 5aeb 55bc
00000260: c1a2 9dbd c9a0 f0bd 6bed babc 80e8 a9bd
00000270: b9e8 b73c f8d0 97bd 0eac c73c 23a6 e33b
00000280: c9b1 21bd e9f4 76bd 764b 8d3c 79f9 a73c
00000290: c9a1 9239 4001 a7bd cdac c33c 274d 743c
000002a0: ecca 3cbd 286e 353b 7fa8 b6bd f976 25bd
000002b0: 592b 963c 0280 c53d f5cd 0abc ceda d0bc
000002c0: 3f4e bf3c d8f0 bcbc dc27 4bba 846e 94bd
000002d0: 3ce3 0fbd 1a6e 3f3d defe fcbc f603 efbc
000002e0: 9ea8 1abd 2103 ecbc e673 cfbd 27e6 83bc
000002f0: e699 f7bc 047a bebd d43b 873c e2c6 b0bc
00000300: 326a c9bc 3fb6 fb3c 0606 1d3d 5e3f cc3c
00000310: b866 f73b 9f56 97bd 31aa 043d 4183 0cbc
00000320: 3b17 f13c a3f9 b53b 11aa 80bd da9a d13c
00000330: 3155 503c b119 99bc 9a13 8dbd 9f9d 25bc
00000340: 6d21 21bc 35ab 99bc bd54 3abd d989 a6bd
00000350: 6904 27bd 1442 a03c 594f 55bd bbb2 673d
00000360: 514c 98bd d986 a3bc 99f2 39bd 2fd4 353d
00000370: b286 f3bc 60ca b33d 86c6 ce3d fead c13d
00000380: 8bb8 ac3c 8f66 043e 8b3b 9e3b bba4 8c3b
00000390: 27f1 1c3e 0bb1 063e 1b76 0d3d 8bcf 003d
000003a0: b3de 243d dc54 a63d 0f00 bf3d 24a4 783d
000003b0: 5d5f 75bd e441 9dbb 0dda 563b 5bff 0bbd
000003c0: 0a77 853c afc5 cebc 442e 8d3c cf42 ac3c
000003d0: deb0 b5bd 3337 c7bc 9129 323c 645a b93b
000003e0: 1573 53bd 6877 08be ffe6 de3d b06a 863c
000003f0: 841d 113d ba7e 7fbc 1398 963d 21ad adbc
0.06449414 -0.022375964 -0.056971688 -0.047236256 -0.13345751 -0.014080469 0.07756999 -0.07788299
-0.08602791 -0.0052594193 0.0053148544 -0.023544261 -0.046514805 -0.062125616 -0.060932294 0.014124146
-0.01875087 -0.070842 -0.035604544 -0.09766529 0.10909095 0.040574584 0.05614911 -0.010511205
0.01124948 -0.09040951 -0.07119189 0.017621672 0.048990272 -0.021186398 -0.040148932 0.0060530985
0.036614414 0.07683834 0.041228306 0.07638205 0.022917364 0.029127413 0.0050021093 -0.065626904
-0.0017315237 0.05764268 -0.0039041657 0.014328384 -0.048347604 0.05642909 0.07377576 0.03243178
0.09608749 0.016786013 0.19392315 0.11872308 0.09065689 -0.038788695 -0.026336782 0.10266659
0.023421949 0.038031023 -0.009376195 -0.032152303 -0.010775978 -0.0013794584 -0.05135956 -0.08605253
0.03963907 -0.00401347 0.036122743 0.005868767 -0.022182563 -0.06908419 -0.051515386 0.050230492
0.07640607 0.051803958 -0.057136178 0.1065234 0.015608709 -0.009249591 -0.006522058 0.10956498
0.04168479 0.004554279 -0.094868004 -0.07768929 0.00303569 0.016636588 0.00442069 -0.010474987
-0.040124774 0.000492159 -0.027066385 -0.055060405 -0.054252964 -0.012457423 0.07103219 -0.042704653
0.017409898 -0.07540513 0.028091634 0.07322642 -0.028201198 0.0062773083 0.06277396 0.09373566
0.044342626 0.01006669 -0.005302482 0.0022809438 0.13203834 0.036781445 0.04772044 -0.00298566
0.016798628 -0.08419311 -0.1438524 -0.029597092 -0.0032099173 -0.007800542 0.016220812 -0.0756156
0.020003421 -0.06622482 -0.018718231 -0.027680783 0.0067406995 -0.060826253 0.006589477 0.03250668
0.02682161 -0.03961066 0.027108513 -0.026702195 -0.039533872 0.057058975 -0.013991993 0.09422116
-0.011145485 0.0019561483 0.07490422 0.010076515 0.033622473 0.040336058 0.0055478597 -0.07637795
-0.06369119 0.0588583 0.017642051 0.03480888 0.07133634 0.034359608 -0.059351396 -0.0130566005
-0.076970585 -0.11749417 -0.022818288 -0.08296299 0.022449838 -0.074129045 0.024374034 0.0069472953
-0.03947619 -0.06029216 0.017247897 0.0205047 0.0002796783 -0.08154535 0.023886109 0.014910973
-0.04609196 0.0027684066 -0.08918857 -0.040396664 0.018331217 0.09643556 -0.008471956 -0.02549496
0.02335274 -0.023064062 -0.0007749775 -0.07247642 -0.035128817 0.04673586 -0.030883249 -0.029176693
-0.037758462 -0.028810086 -0.10129528 -0.016100956 -0.030224752 -0.093006164 0.01650802 -0.02157921
-0.02458677 0.03072655 0.038335823 0.02493256 0.007550087 -0.073895685 0.03238887 -0.008576215
0.029430022 0.0055534407 -0.062824376 0.025586534 0.012715624 -0.018689008 -0.06888504 -0.010108381
-0.0098346295 -0.018758396 -0.04549097 -0.08131761 -0.04077569 0.019562759 -0.052077625 0.056566935
-0.07436431 -0.019961761 -0.045397375 0.044391807 -0.029727314 0.08778834 0.10096459 0.094570145
0.02108409 0.12929748 0.0048288754 0.0042920983 0.15326367 0.13153474 0.034536462 0.03144793
0.040251445 0.081216544 0.09326183 0.06070341 -0.0599054 -0.0047991145 0.0032783777 -0.034179073
0.016292114 -0.025240747 0.017233975 0.02102795 -0.08871625 -0.024318313 0.010874168 0.0056565274
-0.051623423 -0.133268 0.10883903 0.016408294 0.03542854 -0.015594179 0.073532246 -0.021200718

fc1.bias f4 [120]
00000000: 8063 a1bd 6c2f 9e3c f3ab bebd 2ae0 de3d
00000010: e49b 383c ca9f a6bc d83e e2bc cbec 2dbd
00000020: 71a4 c9bd 279f 0dbe 4e1e 6dbd a2e6 463c
00000030: 2c8a 07be b3cf 84bc c533 fc3c 7105 f63b
00000040: 8ac0 253d 62bd 1bbc 2d0e 1cbd 0b37 31bd
00000050: a662 083e 9a91 84bd b973 c5bd 7afb 0d3d
00000060: 7335 e1bb 02a3 32bd eac8 e63b 98d1 37bd
00000070: 42cd f73c 484d c43c 52a6 13be 0ed9 12be
00000080: 4d45 51bd 146a 073e 1220 1d3b e1f8 35bc
00000090: 3bdf 8f3e d817 cf3c 5985 3b3b 519d 1a3e
000000a0: dcb8 5a3e 3510 223d 06d6 29bd de05 11bd
000000b0: 3c89 d2bc f47e 4cbd 5035 c13d c6b3 22be
000000c0: 1d52 d93d 056b 003d 2baa a1bd 0ae1 f8bc
000000d0: b6eb 33bc 4fa2 75bc f030 27bd 86d3 b7bb
000000e0: 24ea 0e3e 86d4 123e 23c9 163d 4298 d7bd
000000f0: a1ac 4f3c 55dd 163d 556f f63d 9d66 cbbb
00000100: 56be 3ebd da0c 9b3a 6131 fb3d 3847 7a3d
00000110: 01fd f13d 3333 1b3e 371d b93c 8ff9 83bd
00000120: 8e39 c1bd 7895 843d a3a9 97bd 8241 24bd
00000130: eee7 083d d2c7 1cbd 8ee5 943c 5baf 7bbd
00000140: 5e5f 0fbd 350f 3b3d 3ddc 94bd c0fe 283e
00000150: 1277 9c3c fae2 d13d c361 c63d 3791 a13c
00000160: 69cc dd3c e952 c93c a6a7 863d 4225 09be
00000170: 2c91 173d fcc4 46bd b3b0 6fbc 1b2a f93d
00000180: 3b7a 083d e730 2abc cb69 60bd ec5b 243e
00000190: 0b42 3c3e 1937 0e3e bd32 4f3c ba28 8f3b
000001a0: d080 c1bb 589c 22bc 3bf7 da3c d522 ecbd
000001b0: e71b ec3d a6bd 13bd 9f7e 673d 5048 da3d
000001c0: ffe0 24bc 14de 243d 224c 2f3e f8fe 4e3e
000001d0: a7d5 27be 8a68 bd3d 562c 2d3c 84f1 a0bd
-0.07880306 0.019309722 -0.093101405 0.108826 0.011267636 -0.020339865 -0.027617857 -0.04246215
-0.09845818 -0.13830243 -0.05789023 0.012139948 -0.13236302 -0.01621232 0.030786404 0.007507973
0.040466823 -0.009505602 -0.038099457 -0.043265384 0.13318881 -0.06473084 -0.09641213 0.034663655
-0.0068728267 -0.043612488 0.007042994 -0.04487762 0.030249242 0.023962632 -0.14418915 -0.14340612
-0.05109148 0.1322406 0.0023975414 -0.011106701 0.281 0.025279924 0.0028613417 0.15099074
0.21359581 0.039566237 -0.041463874 -0.035405986 -0.025700204 -0.04992576 0.09433997 -0.1588889
0.10611365 0.03135206 -0.07893785 -0.030380744 -0.010981491 -0.014992311 -0.040818155 -0.0056099324
0.13956505 0.14338884 0.036812913 -0.10527088 0.012675435 0.036832172 0.12032954 -0.006207301
-0.046568237 0.0011829392 0.12265278 0.061103076 0.11815835 0.1515625 0.022596939 -0.06444084
-0.09434806 0.064738214 -0.074054025 -0.040101536 0.03342431 -0.0382765 0.018175866 -0.06144653
-0.03500306 0.0456688 -0.072685696 0.1650343 0.019099746 0.102483705 0.09686615 0.019722564
0.02707501 0.024575667 0.06574945 -0.13393119 0.03700368 -0.048527703 -0.014629531 0.12166234
0.033319693 -0.010387636 -0.054788392 0.1605069 0.18384568 0.13888206 0.012646374 0.0043688687
-0.005905248 -0.009924971 0.026729217 -0.11530081 0.115287594 -0.036069535 0.05651724 0.10658324
-0.010063409 0.040250853 0.17118886 0.2021445 -0.16390096 0.09248455 0.010569653 -0.078585654

fc2.weight f4 [84, 120]
00000000: 1be0 d23d a8ab bb3d 5de8 a2bd eb0a 68bd
00000010: e368 55bb 90b8 db3c f996 353d 408a 9cbd
00000020: 4367 d63c 64a4 153d 58fb 6b3d 864e 863d
00000030: c656 85bd 8c92 5c3d c139 36bd 7f4f 3abd
00000040: cae0 343d b384 10bd 0a06 ce3d 1c49 4bbc
00000050: 7fd1 9d3c 1319 983d eade 9e3d 2d12 903d
00000060: 52e9 5a3c d718 653e ca26 323d 0261 cc3d
00000070: 2449 9f3d fb08 09be 5c8a 0f3d c814 b7bd
00000080: 0c8a 0abd 930f f63c d8aa 68bd 8df5 723c
00000090: f6d9 a1bd 6e4b 2bbd 99ca f6bb 0fbb a73c
000000a0: 539f cb3c 2970 9f3d a612 c03d 8b6a bfbb
000000b0: cb4f 453d 8e99 8c3c bd13 a43d 9c29 acbc
000000c0: acee 39bd 435e 303d 2568 3f3b 3451 883d
000000d0: 848a 28bd 11a4 193c 5f0a 8ebd 711d b2bc
000000e0: 88b6 6abd ad3b d7bc 15d4 943d 4664 713c
000000f0: 580a cf3d bd7a 69bd 5811 4ebc ee4b d43d
00000100: edf1 913d 6f9e cabc 5fd8 08bd d712 9c3d
00000110: 9914 14bd 3338 e0bc 488c 233d 6e16 14bb
00000120: f2e2 093e 4268 463e fd88 733c c663 993c
00000130: dd46 9dbd 7316 07be 48e9 853c 7609 b9bc
00000140: c287 a8bd c00f 96bc 1676 ad3b cfb5 bc3b
00000150: 2ee3 febc 92d9 a53d 2ba0 593d 3e16 8abd
00000160: 35cf 82bd e2ab 713c 70c9 053e 41b0 babd
00000170: 2877 933d 4f45 9fbc dcdf 9abc ef76 1d3d
00000180: 2b0a 043c 0091 f03d ed38 ebbd 85e1 203d
00000190: 525a 683d 0471 253c 1693 5a3d 6f5f 773c
000001a0: 4f40 a23d df3a e2bd 60a2 a3bd 1811 9a3b
000001b0: 4822 b8bd 35a4 3b3c 4286 5b3d 6950 2e3b
000001c0: 710c c93c 9ec0 333d 1884 853c 4799 363d
000001d0: de02 e33c 48ef a33d 11d4 8f3d 8361 ccbd
000001e0: dca2 0f3c b711 30bd 9174 08bd b3f9 1cbd
000001f0: 28b3 0bbd 7662 4dbd 10a5 85bd 5f73 d5bb
00000200: def5 283d d80c 0c3b e387 6c3d 170c 72bd
00000210: 0869 8fbc b8d0 18bc 97fc 5bbd e54a 7b3d
00000220: 907b 883d 1d57 eb3a c08f d53c f18d a33d
00000230: e2d5 b23d e6dd 073e e83c 0dbc f807 38bd
00000240: 910c 88bd b84c 213e 611e 0bbd 7388 a73c
00000250: edaf 9c3c 6328 ca3d cd8e a5bd e093 b73d
00000260: e737 203c 3c7d 593c 04a4 99bd 93d4 873d
00000270: 7184 b63d 944e a8bc c85b d73c 8c03 e33d
00000280: c3df 4abc 1534 9ebd 7b88 e43c 5255 003c
00000290: 8db6 3bbd 49b3 adbd db6f a0bc 1664 d3bc
000002a0: 4bbc 7fbd 27e9 68bd fe45 fcbc 16fa 1ebd
000002b0: 8c09 603d ceee 8b3d fd78 a63b 3720 073d
000002c0: eb58 09bc 1c55 0fbd d959 973d 10dd 9c3b
000002d0: 1bc9 76bb 6384 3e3d 3a71 7f3d ac18 b03d
000002e0: 309c 2dbd fe12 1dbd 4422 633e b8a6 543d
000002f0: 30e4 0a3d 3f64 ee3c 8fec f73c 1392 4ebd
00000300: eac0 c63d 603a 65bb 9c07 aebd 2894 a73d
00000310: 5225 b53d 6bd9 ff3d 95ca 953c 1801 333d
00000320: a85f a3bd 5188 8bbd 11ef acbd 7903 6b3c
00000330: d020 e73d bca3 1a3e 6176 e0b9 2c44 c23d
00000340: 3ecb 99bd 98d7 c5bd 6e91 b6bd 1331 8abc
00000350: 9c4e df3c 8184 1dbc eb29 b3bd 5292 6c3c
00000360: f59a afbc f666 d73d b2aa d0bd f4cd f53d
00000370: 217e 443c c986 ae3c 799d 50bd 2e12 46bd
00000380: 52c8 163c 0936 aabd 4f86 25be 0753 a33d
00000390: 94ad 08bd e89e be3c 8f93 8b3d 69ec e73d
000003a0: 9c29 b1bd 3f61 023d aa6f 773d adc9 363d
000003b0: 515f 9c3b 53ce a9bd ae3b 5e3d 96f6 4fbd
000003c0: 06b9 4d3d 4c7b 62bd 2189 113e c666 ed3d
000003d0: 7783 65bd 4902 7e3d e4fb c73c 0e20 cf3c
000003e0: c53b 8a3d 8954 9c3d 6f4b 9e3d 8034 853c
000003f0: d8af f53c 4c91 ca3c 0f42 023c 1018 ad3c
0.10296651 0.091636 -0.07954476 -0.056651037 -0.0032563738 0.026821405 0.044333432 -0.076435566
0.026172286 0.03653373 0.057612747 0.06557946 -0.06510691 0.053850695 -0.044488672 -0.04548597
0.044159688 -0.0352828 0.100597456 -0.012407567 0.019264935 0.074266575 0.07757361 0.07034717
0.013361292 0.22372757 0.043494023 0.0997944 0.07777622 -0.13382332 0.03504406 -0.089395106
-0.033823058 0.030036723 -0.056803554 0.014829052 -0.07902901 -0.041819982 -0.0075314757 0.020474939
0.024856245 0.07785065 0.09378557 -0.0058415583 0.0481718 0.017163064 0.08011577 -0.021015935
-0.04539363 0.043058645 0.0029206362 0.06656113 -0.041147724 0.009377495 -0.06935572 -0.021742554
-0.05730298 -0.026273573 0.07267014 0.01473338 0.10109395 -0.057001818 -0.012577377 0.10366045
0.07126222 -0.02473375 -0.033409473 0.07620781 -0.036152456 -0.027370548 0.039928705 -0.0022596377
0.13465479 0.19375709 0.0148642035 0.018724333 -0.07679532 -0.13192157 0.016346589 -0.02258752
-0.08229019 -0.018318057 0.005293618 0.005758978 -0.031114187 0.08098139 0.053131264 -0.067425236
-0.06387178 0.014750453 0.13065124 -0.09115649 0.072004616 -0.019442229 -0.018905573 0.038443502
0.008059065 0.117464066 -0.11485467 0.039277572 0.05672676 0.010097746 0.05336293 0.015098437
0.07922422 -0.11046385 -0.07989955 0.0047017448 -0.08990914 0.011452724 0.053594835 0.002659822
0.024542065 0.043884866 0.016298339 0.04457977 0.027711328 0.08004624 0.0702287 -0.099795364
0.008766856 -0.042985644 -0.03331429 -0.03832407 -0.034106404 -0.050142728 -0.06525624 -0.0065139974
0.041250102 0.002136996 0.05774678 -0.05909356 -0.017506137 -0.009327106 -0.053707685 0.061350722
0.06664193 0.0017955039 0.026069522 0.079860575 0.08732201 0.13268241 -0.008620478 -0.044929475
-0.06643022 0.15751922 -0.03396452 0.020450806 0.019126857 0.098709844 -0.08083878 0.08963752
0.009778953 0.013274487 -0.075019866 0.06632342 0.0891198 -0.020545281 0.026288882 0.11084661
-0.0123824505 -0.077247776 0.02789711 0.007832842 -0.04582839 -0.084814616 -0.019584587 -0.02580456
-0.06243543 -0.056862976 -0.030795094 -0.03881272 0.054696605 0.06832658 0.005080341 0.032989707
-0.008383016 -0.034993276 0.07390184 0.004787095 -0.003765649 0.046512973 0.06236384 0.08598456
-0.04238528 -0.03834819 0.2218104 0.051916808 0.033909023 0.029100535 0.030264167 -0.050432276
0.09704764 -0.0034977421 -0.08497545 0.081825554 0.08845009 0.12492641 0.018285075 0.043702215
-0.07977229 -0.0681311 -0.08444036 0.01434409 0.11285555 0.15101522 -0.00042812809 0.09485659
-0.075094685 -0.09660262 -0.08914457 -0.016869104 0.027259164 -0.009614111 -0.087482296 0.014439182
-0.021436194 0.10517685 -0.101888075 0.12002173 0.011992962 0.021304505 -0.050931428 -0.04835718
0.0092030335 -0.08311088 -0.16164516 0.079748206 -0.033368662 0.023269132 0.06815254 0.113243885
-0.086505145 0.031831022 0.060409226 0.044625927 0.004772105 -0.08291306 0.054256134 -0.050772272
0.05022528 -0.055293366 0.14212467 0.11591868 -0.056033578 0.062013898 0.024412103 0.02528384
0.067496814 0.07633311 0.077292316 0.016260386 0.029991075 0.024727486 0.00795032 0.021129638

fc2.bias f4 [84]
00000000: 70ef 533d 316c 433d d735 b6bc 4f63 c2bd
00000010: c843 d83c 82cb 86bd 4737 3f3d 166a 50bd
00000020: c881 ac3d 810a 6a3e 9260 bc3d 3faa 24bb
00000030: 66db 0ebb da3c 50bb 5532 423d 6334 323e
00000040: 4638 01bd b060 2b3e cce0 ffbd 103a 0abe
00000050: 1dcc a0bd 2869 b8bc e08f 63bc 6fa7 a8bc
00000060: e48b ccbd 61d8 183c 1fb5 17bc 10ed 1c3e
00000070: f37e eb3c e8cd 94bd cee1 383e 716a f13d
00000080: 1562 98bc bc99 893d 47b5 e13d 0ee0 1b3e
00000090: 69ed 3b3e cbca 193e f5f7 84bd 9487 423e
000000a0: 8979 83bc 2b20 19bd ef78 793d 152b e7bd
000000b0: fb69 e4bc 57ca e03c c26a 74bd 3650 adbd
000000c0: a4ce 2ebc 1fea 383e 9f28 8ebc cd4a d3bd
000000d0: ac4f bd3d dc2e f13c 760b 793e 5b9b d5bc
000000e0: 6e61 87bc 1673 1c3d 4029 e93c 0271 943d
000000f0: b22a 903d e810 743d 7779 d7bc 5a48 183d
00000100: 439b 233e 8185 113d 8cca 2ebe 8474 1c3e
00000110: 4b3e b1bd fbe1 bebd 7e97 ba3d b976 4c3d
00000120: 9eea 3ebd a459 013e 31e9 b7bb dc07 173d
00000130: 7291 96bd 5d1a 4d3e cf98 9cbd 8c03 e4bc
00000140: cef9 06be 4fda 1d3e 03f0 cebb 66d6 633e
0.051742017 0.0477106 -0.02224247 -0.09491598 0.026399508 -0.06581785 0.046683576 -0.05088242
0.08423191 0.2285557 0.09198107 -0.0025125889 -0.0021798252 -0.0031774552 0.04741128 0.17402796
-0.031547807 0.16736102 -0.124940485 -0.13498712 -0.078514315 -0.02251108 -0.013889283 -0.020587651
-0.099876195 0.0093289325 -0.009259491 0.15324807 0.028747058 -0.07265836 0.18054888 0.1178788
-0.018601457 0.06718776 0.11020904 0.15222189 0.18352284 0.15018766 -0.064926066 0.18997031
-0.016049163 -0.037384193 0.060906347 -0.11287514 -0.027882567 0.027440233 -0.059672125 -0.08462565
-0.010669384 0.1805806 -0.017353354 -0.103170015 0.09243712 0.02944129 0.24320778 -0.026075056
-0.01652595 0.038195692 0.028462052 0.07248117 0.070393935 0.059586436 -0.026303036 0.037178375
0.15977196 0.03552771 -0.17069453 0.15278822 -0.086544596 -0.09320446 0.09110926 0.04991791
-0.046610467 0.12631851 -0.0056125154 0.03687273 -0.0735196 0.20029588 -0.076463334 -0.027833723
-0.1318123 0.1541531 -0.0063152327 0.22249755

fc3.weight f4 [10, 84]
00000000: 529e 293d 5a1e e03b 26a4 cabd 568b a3bd
00000010: 952b 983d 0818 363d 4f8f bbbd 1244 1fbd
00000020: a1d0 04be 5152 aabd a4d2 b1bd a635 f23d
00000030: 1027 73bc 9169 dd3d 33f3 50be d613 e93d
00000040: f08d c33d a276 3abe 383a 8cbc 1ccc 983d
00000050: db58 8bbd f850 d6bd 5814 183c 5218 273e
00000060: 4f35 063d 52e8 febd 1891 53bd 3544 043c
00000070: 768b 833c 68e7 21bb 5468 ea3d 1702 1e3d
00000080: a5a1 393d a8f6 abbc 9058 a53d f44f 6abd
00000090: 5269 13be c517 9bbd 8323 cf3d cad6 46be
000000a0: 8299 503d 9ae7 11bd ad0b 1ebe b7c0 463d
000000b0: 14d1 0abe 656f 833d 8352 f73d edaf c3bd
000000c0: 98df 943d 08c2 cf3d 5b19 c3bd ac77 9abc
000000d0: b1e2 9bbd 26a6 f0bd a267 2abe c435 4e3e
000000e0: 3540 b13d 0ca4 29be bb7d ecbc 6dd7 7c3d
000000f0: 6144 cabc 5418 5abd 187c 473d 7a67 95bd
00000100: 30a6 0539 3fb1 0f3e 84ea a43c 02b0 e03d
00000110: f256 f4bc 1bbc dc3d 6650 ea3d 9ec5 2dbc
00000120: 6a1c a13d e1c0 96bd fc07 93bd 7f03 dfbb
00000130: fb97 ec3d 6cd1 05bd 000e 13bd f9fe cc3d
00000140: ea24 223e 8893 e5bc 28e5 103d 0e53 c3bd
00000150: 66da 35bd bdcc dabc 936a 093e fb72 923c
00000160: 7d50 9c3d de57 edbd 77d9 fa3c 7c67 fd3d
00000170: 722b d7bd f795 10be 244f 56be e49c d2bd
00000180: 950d 903c 7ae7 aab8 d357 08be 0cef 58bd
00000190: bba2 753d f7fc 26bd 9f7c dabb e457 073e
000001a0: f4b1 e5bd 6341 f83d cfff 923d e619 9e3d
000001b0: f362 dabd fd3d 9ebb e196 ea3d 8193 e8bd
000001c0: fcd5 9bbd f356 8dbd 6f69 e8bd f46c 2bbe
000001d0: 1681 073c 8ae0 06bd 5197 3d3d f57d e8bc
000001e0: 41cf 9cbb 49ee 8e3d 3a0c 373d b1d2 9fbb
000001f0: a2f7 e63d af73 41bd ccd6 df3d 8f3f 083d
00000200: f3c9 af3d c9bf 933c 3076 963c 54bc bf3d
00000210: 6102 523d 2654 d9bd 63d1 fe3d a853 813d
00000220: 6246 903d 9847 f8bd c815 d93c 210a 9cbd
00000230: cd4e ad3d 0dc7 a23c 139c 2e3d 3313 07bd
00000240: a498 b73d 8d55 b6bd f738 cf3a 4722 39bd
00000250: c68d cfbd 032c 1fbe f120 12bd 4cf2 ddbd
00000260: 5f9c 303e 5a4f 803d 05a2 b8bd 6751 f23d
00000270: 00dc 75bd dc65 eebd fa62 7cbd f0c6 0f3e
00000280: 4e57 7b3c a0b3 6ebd 1ac6 373c 0d3e 10be
00000290: cd20 92bd 6f74 54bd 0776 253e 0742 39be
000002a0: 895f af3c 703f 0f3e 602c 84bd 6420 a7bc
000002b0: c6d1 bc3c 8cc9 d63d bd35 2e3c 56ef b13d
000002c0: 15b8 f5bd a980 f13d 2b7c 5cbc 3835 153e
000002d0: 4c77 3bbd ebdf 403d 7087 e33c db8a 533d
000002e0: ee8e 5abd 284c 733d 84c2 e7bd 2deb 0abd
000002f0: f3af 293d 283c 913d d831 a83d c6bb db3c
00000300: a7e0 0dbc f015 f33c 5694 69bd 3087 04be
00000310: 9e80 ccbc e4aa b4bd ecc9 293e ac54 553d
00000320: d64d b7bd 50e3 bfbc 43e3 adbc fa01 2fbc
00000330: 6c9b 2cbd ab3c ab3d dd6c 0bbe 2c66 2e3c
00000340: ea70 ddbd 5a33 dfbd e3f3 b73d 2e05 10be
00000350: 4591 91bd e84f 1a3b 9fb6 ccbd aa54 b43c
00000360: f58c eebd 1b2d 303d d489 4fbe b8b2 e4bd
00000370: f36c ba3d 0624 d63d 1ca1 1b3e 07f9 55bd
00000380: 0730 b5bd 4767 bf3b 88bd 0cbd 4fad c83d
00000390: 7dc6 ac3d 56ab aebd 5b86 8abd e9a5 47bd
000003a0: 5c85 4cbd be16 313e ed9a 02be 2300 623d
000003b0: b684 0ebd b379 92bd 546e b53d 4db8 fe3d
000003c0: b16d 67bd e4f0 b73d e7d3 edbd 8204 0d3e
000003d0: 4aa6 803d 339a 843d b4c5 e93d 3918 68bb
000003e0: 0543 9b3d 2109 d8bc a4f4 c5bd c25c bc3d
000003f0: bfd4 aa3d 9494 8ebd aa7b 84bd 3399 66bd
0.04141075 0.0068395557 -0.0989459 -0.079855606 0.074301876 0.04445651 -0.09158193 -0.038883276
-0.1297021 -0.08316482 -0.08682755 0.11826639 -0.014840856 0.10811151 -0.20405273 0.113807365
0.09548557 -0.18209317 -0.017117605 0.07460806 -0.06804057 -0.10464662 0.009282194 0.16317871
0.032765683 -0.12446655 -0.051652044 0.008072902 0.016057711 -0.002470458 0.1144568 0.03857621
0.045320172 -0.020991638 0.080735326 -0.057205155 -0.14395645 -0.07572893 0.10114195 -0.19417873
0.050927646 -0.035621263 -0.15434141 0.04852363 -0.1355632 0.06417731 0.12076285 -0.095550396
0.072692096 0.101444304 -0.095263205 -0.018855892 -0.07611597 -0.1175044 -0.16641095 0.20137697
0.08654825 -0.16566485 -0.028868547 0.061728884 -0.024690809 -0.053245857 0.04870233 -0.07295127
0.00012745778 0.14032458 0.020131357 0.10971071 -0.029826615 0.10778066 0.11441116 -0.010606198
0.07866748 -0.073610075 -0.07179257 -0.0068058367 0.115524255 -0.032670423 -0.035902023 0.1000957
0.15834394 -0.02802445 0.03537479 -0.09537326 -0.044397734 -0.026708955 0.13419561 0.017877093
0.076325394 -0.11589025 0.030621273 0.12373254 -0.105063334 -0.14119707 -0.20928627 -0.10283831
0.017584601 -8.1493476e-05 -0.13314752 -0.052962348 0.059969645 -0.04076859 -0.006667688 0.13217121
-0.112155825 0.121218465 0.07177698 0.077197835 -0.10663404 -0.004829167 0.11454559 -0.11356259
-0.07609174 -0.0690135 -0.11348235 -0.16740781 0.008270523 -0.03292898 0.046286885 -0.028380373
-0.004785449 0.06979043 0.044689395 -0.0048774113 0.11277701 -0.047229465 0.10929641 0.03326374
0.08583441 0.018035786 0.018366903 0.093620926 0.0512718 -0.10611753 0.12442281 0.06314784
0.070446745 -0.121230304 0.026499644 -0.076191194 0.08462296 0.019870305 0.042629313 -0.032977294
0.08964661 -0.08903036 0.0015809824 -0.045198705 -0.10134463 -0.15544133 -0.035675947 -0.1083723
0.17247151 0.06265135 -0.09015278 0.118319325 -0.06002426 -0.11640522 -0.06161783 0.14040732
0.015340639 -0.058276772 0.011216665 -0.1408617 -0.071351625 -0.051868852 0.16158305 -0.18091594
0.02140786 0.13989043 -0.06453776 -0.020401187 0.023049247 0.10487661 0.010632929 0.08688228
-0.119980015 0.11792118 -0.013457338 0.14571083 -0.045768067 0.047088545 0.027774543 0.051646095
-0.053358965 0.0593988 -0.11316398 -0.033915687 0.041427564 0.07091552 0.08212632 0.026822936
-0.008659518 0.029673547 -0.05702623 -0.12942195 -0.024963673 -0.08821657 0.16580933 0.052082703
-0.08950393 -0.02342382 -0.02122653 -0.010681624 -0.04214041 0.08361181 -0.13615747 0.010644477
-0.10812552 -0.108984664 0.089820646 -0.14064476 -0.07107786 0.0023546163 -0.0999577 0.022013027
-0.11647979 0.043011766 -0.20267421 -0.111669004 0.09102812 0.1045609 0.15198177 -0.052239444
-0.08847051 0.005841169 -0.03436044 0.09798681 0.08436296 -0.085287735 -0.067639075 -0.04874221
-0.04993187 0.17293832 -0.12754412 0.05517591 -0.03479453 -0.071521185 0.08858934 0.12437496
-0.056501094 0.08981493 -0.11612683 0.13771251 0.06281717 0.06474724 0.11414662 -0.0035414828
0.07581142 -0.02637154 -0.09665802 0.0919738 0.08341359 -0.06961933 -0.064688995 -0.056298446

fc3.bias f4 [10]
00000000: f6c6 433d 7933 3fbe 5c23 d03c 088b 6bbd
00000010: 218d 313e 253a 24bd 61fe b23c 33a9 a4bc
00000020: a3b3 b33d 1cde bfbc
0.047797166 -0.18671979 0.025407486 -0.057505637 0.17338993 -0.040094513 0.021849813 -0.020100212
0.08774497 -0.02342134
